----------------------------------------------------------------
        Layer (type)               Output Shape         Param #
================================================================
            Linear-1                  [-1, 128]           4,736
               GRU-2  [[-1, 1, 256], [-1, 2, 256]]               0
            Linear-3                  [-1, 256]          98,560
            Linear-4                  [-1, 256]          65,792
              ReLU-5                  [-1, 256]               0
            Linear-6                   [-1, 14]           3,598
            Linear-7                  [-1, 256]          65,792
              ReLU-8                  [-1, 256]               0
            Linear-9                    [-1, 1]             257
================================================================
Total params: 238,735
Trainable params: 238,735
Non-trainable params: 0
----------------------------------------------------------------
Input size (MB): 0.00
Forward/backward pass size (MB): 0.99
Params size (MB): 0.91
Estimated Total Size (MB): 1.90
----------------------------------------------------------------
